{"architecture":{"class_name":"Functional","config":{"name":"sequential","layers":[{"class_name":"InputLayer","config":{"batch_input_shape":[null,14],"dtype":"float32","sparse":false,"ragged":false,"name":"input_1"},"name":"input_1","inbound_nodes":[]},{"class_name":"Dense","config":{"name":"dense","trainable":true,"batch_input_shape":[null,14],"dtype":"float32","units":64,"activation":"relu","use_bias":true,"kernel_initializer":{"class_name":"GlorotUniform","config":{"seed":null}},"bias_initializer":{"class_name":"Zeros","config":{}},"kernel_regularizer":null,"bias_regularizer":null,"activity_regularizer":null,"kernel_constraint":null,"bias_constraint":null},"name":"dense","inbound_nodes":[[["input_1",0,0,{}]]]},{"class_name":"Dense","config":{"name":"dense_1","trainable":true,"dtype":"float32","units":128,"activation":"relu","use_bias":true,"kernel_initializer":{"class_name":"GlorotUniform","config":{"seed":null}},"bias_initializer":{"class_name":"Zeros","config":{}},"kernel_regularizer":null,"bias_regularizer":null,"activity_regularizer":null,"kernel_constraint":null,"bias_constraint":null},"name":"dense_1","inbound_nodes":[[["dense",0,0,{}]]]},{"class_name":"Dense","config":{"name":"dense_2","trainable":true,"dtype":"float32","units":32,"activation":"relu","use_bias":true,"kernel_initializer":{"class_name":"GlorotUniform","config":{"seed":null}},"bias_initializer":{"class_name":"Zeros","config":{}},"kernel_regularizer":null,"bias_regularizer":null,"activity_regularizer":null,"kernel_constraint":null,"bias_constraint":null},"name":"dense_2","inbound_nodes":[[["dense_1",0,0,{}]]]},{"class_name":"Dense","config":{"name":"dense_3","trainable":true,"dtype":"float32","units":3,"activation":"linear","use_bias":true,"kernel_initializer":{"class_name":"GlorotUniform","config":{"seed":null}},"bias_initializer":{"class_name":"Zeros","config":{}},"kernel_regularizer":null,"bias_regularizer":null,"activity_regularizer":null,"kernel_constraint":null,"bias_constraint":null},"name":"dense_3","inbound_nodes":[[["dense_2",0,0,{}]]]}],"input_layers":[["input_1",0,0]],"output_layers":[["dense_3",0,0]]},"keras_version":"2.10.0","backend":"tensorflow"},"image_data_format":"channels_last","input_shapes":[[14]],"output_shapes":[[3]],"tests":[{"inputs":[{"shape":[14],"values":["1k8Jv+rsB76CWLY/uYKFPTE3BsB5Bt0+45DIv47RRb8qhe++8U0avtMbLD9TVLa+d2qpP9jvlL8="]}],"outputs":[{"shape":[3],"values":["NknXvxFiz78VALK/"]}]}],"trainable_params":{"dense":{"weights":["…","…","…","…","…"],"bias":["…"]},"dense_1":{"weights":["…","…","…","…","…","…","…","…","…","…","…","…","…","…","…","…","…","…","…","…","…","…","…","…","…","…","…","…","…","…","…","…","…","…","…","…","…","…","…","…","…","…","…"],"bias":["…"]},"dense_2":{"weights":["…","…","…","…","…","…","…","…","…","…","…","…","…","…","…","…","…","…","…","…","…","…"],"bias":["iOjDvF+7ybwcJVI9WeXruzW1aLz7OTe82ZcWvTQ98js9xL+8seZZvHMu0Lv3RGW8cuMYPaFBSLwRi3A9hIV7PTbMqz0AAAAAk5i+vAAAAAAUMoI8AAAAAMr8XLv4RxO9b20tPaAA7jplqD89dFcLvGqIiDzJbF89fwItvO18Pbw="]},"dense_3":{"weights":["…"],"bias":["c9fdPMO0BT0VXgA8"]}},"hash":"c3b3a7d038f356771442180854de5059cf81aa08de566210cbc413fe88bff231"}